Deep Learning/Code Basics/tflite_qaware_model.tflite (tflite, 82776 bytes, 2 tensors)

sequential_2/quant_dense_3/MatMul;sequential_2/quant_dense_3/LastValueQuant/FakeQuantWithMinMaxVars i1 [100, 784] scale=0.0072705564 zero_point=0
0.05816445 0.02181167 0.014541113 -0.06543501 0.0 0.0072705564 -0.050893895 0.02181167
-0.05816445 -0.06543501 0.0 -0.05816445 -0.029082226 0.014541113 -0.014541113 -0.05816445
0.029082226 0.014541113 0.050893895 -0.05816445 -0.07270557 -0.0072705564 0.014541113 0.036352783
-0.0072705564 -0.050893895 -0.04362334 0.06543501 0.05816445 0.02181167 0.0072705564 0.06543501
-0.029082226 0.05816445 0.036352783 -0.0072705564 0.1163289 0.05816445 0.09451723 0.0072705564
0.18903446 0.10905834 0.22538725 0.23992836 0.20357558 0.20357558 0.14541113 0.1672228
0.13814057 0.18176392 0.13814057 0.18176392 -0.05816445 -0.07270557 0.014541113 0.029082226
-0.014541113 0.029082226 0.07997612 0.08724668 -0.0072705564 0.014541113 0.07997612 0.10178779
0.07997612 0.014541113 0.19630502 0.18903446 0.07270557 0.23992836 0.2326578 0.2835517
0.37079838 0.13087001 0.26901057 0.21811669 0.21811669 0.24719892 0.20357558 0.25446948
0.07270557 0.02181167 -0.06543501 0.029082226 -0.02181167 0.07270557 0.13087001 0.13087001
-0.1163289 0.029082226 0.09451723 0.036352783 0.0072705564 0.1163289 0.036352783 0.029082226
0.02181167 0.050893895 -0.07997612 0.0072705564 0.036352783 0.10178779 0.09451723 0.10905834
-0.07997612 0.036352783 0.07270557 0.15268168 0.050893895 -0.15268168 -0.07270557 0.06543501
0.05816445 -0.07270557 0.04362334 -0.08724668 -0.029082226 0.029082226 0.04362334 -0.0072705564
0.04362334 0.036352783 -0.02181167 -0.12359946 -0.17449336 -0.07997612 -0.06543501 -0.07997612
0.05816445 0.07270557 0.0072705564 0.20357558 0.07997612 -0.04362334 -0.07997612 0.06543501
-0.18176392 -0.25446948 -0.15268168 0.10178779 -0.07997612 -0.050893895 0.21084614 -0.25446948
-0.036352783 0.02181167 -0.029082226 -0.02181167 -0.1672228 -0.1672228 -0.09451723 -0.15995224
-0.13087001 -0.1163289 0.050893895 0.029082226 -0.0072705564 -0.0072705564 0.050893895 0.10178779
0.02181167 -0.04362334 -0.036352783 0.13087001 -0.014541113 -0.10905834 0.0 0.050893895
-0.0072705564 -0.07997612 0.07270557 -0.32717505 -0.20357558 -0.1672228 -0.15268168 -0.12359946
-0.32717505 -0.3998806 -0.2980928 -0.13087001 -0.10178779 -0.029082226 0.0 0.20357558
0.0 -0.04362334 -0.1163289 -0.036352783 -0.050893895 -0.07270557 0.06543501 -0.029082226
-0.09451723 -0.09451723 -0.26174003 0.10905834 0.050893895 -0.1672228 -0.029082226 -0.21084614
-0.2326578 -0.3853395 -0.19630502 -0.12359946 -0.23992836 -0.3344456 -0.21084614 -0.036352783
0.07270557 0.10905834 0.18176392 0.15995224 0.0 -0.014541113 -0.036352783 -0.19630502
-0.20357558 -0.050893895 -0.029082226 -0.10178779 -0.15995224 -0.1672228 -0.05816445 0.050893895
0.15995224 -0.08724668 -0.050893895 -0.1672228 -0.21084614 -0.35625726 -0.20357558 -0.15995224
-0.35625726 -0.26901057 -0.21084614 0.036352783 0.05816445 0.21811669 0.19630502 -0.0072705564
0.0 -0.014541113 -0.06543501 -0.15268168 -0.20357558 -0.10178779 -0.08724668 -0.07270557
-0.34171614 -0.17449336 -0.029082226 -0.050893895 0.0 -0.20357558 0.036352783 0.04362334
00000000: 0803 02f7 0001 f903 f8f7 00f8 fc02 fef8
00000010: 0402 07f8 f6ff 0205 fff9 fa09 0803 0109
00000020: fc08 05ff 1008 0d01 1a0f 1f21 1c1c 1417
00000030: 1319 1319 f8f6 0204 fe04 0b0c ff02 0b0e
00000040: 0b02 1b1a 0a21 2027 3312 251e 1e22 1c23
00000050: 0a03 f704 fd0a 1212 f004 0d05 0110 0504
00000060: 0307 f501 050e 0d0f f505 0a15 07eb f609
00000070: 08f6 06f4 fc04 06ff 0605 fdef e8f5 f7f5
00000080: 080a 011c 0bfa f509 e7dd eb0e f5f9 1ddd
00000090: fb03 fcfd e9e9 f3ea eef0 0704 ffff 070e
000000a0: 03fa fb12 fef1 0007 fff5 0ad3 e4e9 ebef
000000b0: d3c9 d7ee f2fc 001c 00fa f0fb f9f6 09fc
000000c0: f3f3 dc0f 07e9 fce3 e0cb e5ef dfd2 e3fb
000000d0: 0a0f 1916 00fe fbe5 e4f9 fcf2 eae9 f807
000000e0: 16f4 f9e9 e3cf e4ea cfdb e305 081e 1bff
000000f0: 00fe f7eb e4f2 f4f6 d1e8 fcf9 00e4 0506

sequential_2/quant_dense_4/MatMul;sequential_2/quant_dense_4/LastValueQuant/FakeQuantWithMinMaxVars i1 [10, 100] scale=0.009513851 zero_point=0
-0.009513851 -0.19027703 0.43763715 0.20930472 0.09513851 -0.50423414 -0.085624665 -0.14270777
0.066596955 -0.17124933 -0.49472028 0.085624665 0.114166215 -0.3900679 -0.047569256 0.009513851
-0.047569256 0.10465236 -0.3520125 -0.18076317 0.0 0.14270777 -0.43763715 0.20930472
0.26638782 -0.17124933 -0.6469419 -0.26638782 0.3329848 0.10465236 -0.10465236 0.23784629
-0.07611081 -0.28541553 -0.17124933 -0.40909562 -0.26638782 0.15222162 0.28541553 -0.256874
0.114166215 0.19027703 0.3329848 0.13319391 -0.038055405 0.114166215 -0.5898588 0.066596955
-0.6469419 -0.066596955 -0.55180335 -0.513748 -0.34249866 -0.77062196 -0.028541554 -0.21881858
-0.28541553 -0.3710402 -0.9418713 -0.038055405 -0.21881858 0.14270777 0.3139571 0.12368007
-0.3710402 -0.4281233 0.27590168 -0.22833243 0.10465236 -0.028541554 0.22833243 0.20930472
-0.75159425 -0.39958176 -0.28541553 -0.057083108 -0.038055405 0.17124933 -0.047569256 -0.15222162
-0.13319391 -0.19027703 0.34249866 0.057083108 -0.8277051 0.13319391 -0.19979088 -0.32347095
0.22833243 -0.32347095 0.18076317 0.0 -0.99895436 -0.019027703 0.24736014 -0.21881858
-0.10465236 -0.97041285 0.019027703 0.13319391 0.34249866 0.24736014 -0.9799267 -0.3520125
0.3329848 0.07611081 0.18076317 0.30444324 0.28541553 0.07611081 0.7135388 0.50423414
0.038055405 -0.20930472 -0.36152634 -0.3139571 -0.45666486 -0.15222162 0.20930472 0.07611081
-0.028541554 0.19979088 0.24736014 -0.43763715 -0.057083108 -0.028541554 -0.17124933 0.21881858
-0.21881858 0.27590168 -0.3520125 -0.34249866 -0.085624665 0.23784629 -0.09513851 -0.28541553
-0.047569256 0.26638782 -0.47569257 0.0 -0.13319391 -0.24736014 0.21881858 -0.50423414
-0.49472028 -0.38055405 0.17124933 -0.19979088 0.34249866 -0.15222162 0.40909562 0.19027703
-0.19027703 0.19979088 0.114166215 -0.4281233 0.24736014 0.038055405 -0.12368007 0.09513851
-0.39958176 0.20930472 0.3329848 0.09513851 0.28541553 -0.3900679 0.3139571 0.066596955
-0.047569256 -0.07611081 -0.63742805 -0.085624665 0.18076317 -0.028541554 0.19027703 -0.20930472
0.07611081 0.36152634 0.047569256 0.3139571 -0.16173548 -0.066596955 0.32347095 -0.12368007
-0.3329848 -0.28541553 0.6279142 0.13319391 -0.3710402 -0.63742805 -0.15222162 -0.18076317
-0.6659696 0.30444324 -0.34249866 -0.10465236 -0.21881858 0.36152634 -0.47569257 0.07611081
0.10465236 0.34249866 -0.78964967 -0.19027703 -0.009513851 0.038055405 0.13319391 0.26638782
0.019027703 -0.65645576 -0.67548347 -0.46617872 -0.38055405 -0.3900679 -0.09513851 -0.066596955
-0.14270777 0.22833243 -0.3329848 -0.114166215 0.19027703 -0.28541553 0.15222162 -0.085624665
-0.21881858 0.3329848 -0.019027703 0.21881858 0.047569256 -0.6659696 -0.038055405 0.114166215
-0.019027703 0.53277564 -0.24736014 0.18076317 0.085624665 0.085624665 -0.12368007 -0.39958176
-0.2949294 0.15222162 -0.3710402 -0.24736014 -0.26638782 0.047569256 0.40909562 0.10465236
-0.15222162 0.17124933 0.36152634 -0.16173548 -0.7801358 0.13319391 0.2949294 0.09513851
00000000: ffec 2e16 0acb f7f1 07ee cc09 0cd7 fb01
00000010: fb0b dbed 000f d216 1cee bce4 230b f519
00000020: f8e2 eed5 e410 1ee5 0c14 230e fc0c c207
00000030: bcf9 c6ca dcaf fde9 e2d9 9dfc e90f 210d
00000040: d9d3 1de8 0bfd 1816 b1d6 e2fa fc12 fbf0
00000050: f2ec 2406 a90e ebde 18de 1300 97fe 1ae9
00000060: f59a 020e 241a 99db 2308 1320 1e08 4b35
00000070: 04ea dadf d0f0 1608 fd15 1ad2 fafd ee17
00000080: e91d dbdc f719 f6e2 fb1c ce00 f2e6 17cb
00000090: ccd8 12eb 24f0 2b14 ec15 0cd3 1a04 f30a
000000a0: d616 230a 1ed7 2107 fbf8 bdf7 13fd 14ea
000000b0: 0826 0521 eff9 22f3 dde2 420e d9bd f0ed
000000c0: ba20 dcf5 e926 ce08 0b24 adec ff04 0e1c
000000d0: 02bb b9cf d8d7 f6f9 f118 ddf4 14e2 10f7
000000e0: e923 fe17 05ba fc0c fe38 e613 0909 f3d6
000000f0: e110 d9e6 e405 2b0b f012 26ef ae0e 1f0a
