Deep Learning/Code Basics/tflite_quant_model.tflite (tflite, 84904 bytes, 4 tensors)

sequential_2/dense_4/MatMul f4 [10, 100]
000000 88 03 88 3c 66 27 08 be 82 8e ea 3e 60 0f 70 3e
       0.016603246 -0.1329628 0.4581185 0.23443365
000010 ed 73 e7 3d ae 63 e5 be e9 65 ba bd b6 93 1c be
       0.11301408 -0.44802612 -0.09101469 -0.15290722
000020 3c bf d7 3d 0d 2f 19 be 33 24 ef be 46 f3 08 3e
       0.10534522 -0.14959355 -0.46707305 0.13374051
000030 09 7e 0f 3e bf 56 c2 be e1 7a 02 bd 53 03 f1 3c
       0.14012922 -0.37956807 -0.031855468 0.02942053
000040 15 8d 3c bc 2f 72 fc 3d 81 13 a5 be d7 35 30 be
       -0.011508246 0.12326466 -0.32241443 -0.17208038
000050 1c 50 a7 3c 68 2c 2f 3e 0c 07 c1 be 45 33 6b 3e
       0.020423941 0.17106783 -0.3770069 0.22968777
000060 3e f3 76 3e eb 8b 0c be d3 3a 1e bf e0 ed 61 be
       0.24116227 -0.1372525 -0.6180851 -0.22063398
000070 ab 56 a7 3e 82 b4 07 3e ee a0 a6 bd 84 b0 77 3e
       0.3268331 0.13252452 -0.08136164 0.24188429
000080 72 26 77 bd fc a5 84 be a8 2d 27 be 34 d7 ad be
       -0.0603394 -0.25907886 -0.1632601 -0.3395325
000090 61 96 48 be 4a 75 1c 3e 96 51 96 3e 51 e0 68 be
       -0.19588615 0.15279117 0.2935912 -0.2274182
0000a0 61 5d 08 3e 77 89 53 3e b0 93 a8 3e 08 39 0f 3e
       0.13316871 0.20657907 0.32925177 0.139866
0000b0 47 cc 24 bd bb ca da 3d 9c 15 f7 be 0b 92 d1 3d
       -0.040233877 0.10683199 -0.48258674 0.102329336
0000c0 f7 75 17 bf c5 9a 87 bd 32 38 01 bf c3 8c e8 be
       -0.59164375 -0.06621317 -0.5047637 -0.45419893
0000d0 76 fd a6 be cf 62 32 bf 27 3f 48 3d 14 24 3b be
       -0.3261525 -0.6968202 0.04888835 -0.18275481
0000e0 d7 0d 62 be 5e ee a2 be 77 80 50 bf a5 c4 1e bd
       -0.22075592 -0.31822485 -0.8144602 -0.038761754
0000f0 4e 13 47 be 19 59 1b 3e 3e 3a a4 3e 72 af 15 3e
       -0.19440958 0.15170707 0.32075685 0.14617708
000100 22 11 b0 be 8f af bd be b0 ac 9e 3e a2 d6 53 be
       -0.3438807 -0.37048003 0.30991125 -0.20687345
000110 b7 86 02 3e 56 e9 98 bc 9e f3 6e 3e b8 15 64 3e
       0.12746702 -0.01866595 0.2333512 0.2227391
000120 ea e3 28 bf b1 2b bb be 87 ca 5c be a6 ed 26 bd
       -0.6597277 -0.3655677 -0.21561633 -0.040753983
000130 d9 67 b3 bc b0 14 3e 3e 8f dc 51 bd 3c b0 00 be
       -0.021900104 0.18562579 -0.05123573 -0.12567228
000140 2c d0 93 bd d5 01 db bd b5 c3 9e 3e 84 45 65 3d
       -0.0721744 -0.10693709 0.31008688 0.0559745
000150 9f 5d 36 bf 05 1d 2f 3e 1c ef 4a be c2 74 8f be
       -0.71236604 0.17100914 -0.19817775 -0.28018767
000160 e1 32 73 3e 10 f1 a2 be 53 86 4f 3e 89 f3 43 3d
       0.23749878 -0.3182454 0.20266084 0.047839675
000170 2e 1f 63 bf e2 fa db 3c 39 ae 71 3e d4 a1 34 be
       -0.8871945 0.026853029 0.23601617 -0.17639858
000180 ad a8 b2 bd f3 80 66 bf cc c0 87 3c dd ea fa 3d
       -0.087235786 -0.9004051 0.016571425 0.12251828
000190 e5 1b a9 3e 2c e9 70 3e 2c 92 6b bf 45 4e 9f be
       0.33029094 0.23526448 -0.92019916 -0.31114402
0001a0 aa 38 b1 3e 7f 13 fb 3d 99 68 1b 3e 6b ba 95 3e
       0.34613544 0.12259578 0.1517662 0.29243788
0001b0 85 5a 95 3e 6d b8 a0 3d b4 8f 32 3f e0 a5 03 3f
       0.29170623 0.078476764 0.69750524 0.5142498
0001c0 42 b6 89 3d fc 2b 2d be bd bb a9 be 0f dd 92 be
       0.06724216 -0.1691131 -0.33151045 -0.2868428
0001d0 50 fe d6 be 8f 37 ec bd 2a b6 4b 3e f8 92 c7 3d
       -0.419909 -0.115340345 0.19893709 0.09744829
0001e0 b6 11 c9 3c f6 47 67 3e a5 ec 83 3e 53 29 d5 be
       0.024544578 0.22586045 0.25766483 -0.4163309
0001f0 71 73 4f bd 58 c6 cb bc 1a ea 15 be d2 93 72 3e
       -0.050647203 -0.024874851 -0.14640084 0.23689201
000200 6e b1 48 be 60 9f 83 3e d1 b2 af be 01 9a 9e be
       -0.19598934 0.2570753 -0.34316114 -0.3097687
000210 36 a1 bf bc 3f 4c 7b 3e 17 80 a2 bd cf c6 88 be
       -0.023392301 0.24540804 -0.079345874 -0.2671418
000220 9a a3 21 bd d8 0e 9e 3e a1 bb d8 be f2 cc 61 bb
       -0.039462663 0.308707 -0.4233065 -0.0034454432
000230 7d 4a f7 bd 4c 97 52 be 57 aa 50 3e 38 3b e6 be
       -0.120747544 -0.20565528 0.2037748 -0.44967055
000240 2d c7 e4 be f1 13 be be 3a 86 3a 3e cf d3 61 be
       -0.4468321 -0.3712459 0.18215266 -0.22053455
000250 3d 8a b3 3e 6c fb 1c be d9 a2 cf 3e 71 62 6c 3e
       0.35066405 -0.15330285 0.4055393 0.23084427
000260 8f 80 14 be 23 96 4e 3e 57 94 e6 3d c7 19 cb be
       -0.14502166 0.2017446 0.11258762 -0.39668104
000270 bb 22 82 3e a4 22 3b 3d 83 7a af bd c3 e2 ad 3d
       0.25417122 0.045687333 -0.08568289 0.08490517
000280 20 3d b5 be 6e 95 61 3e ab 53 ae 3e 32 d2 ec 3d
       -0.35398197 0.22029659 0.3404821 0.11563529
000290 c7 f2 66 3e bc 18 a4 be c3 6a 98 3e 63 f6 b5 3d
       0.2255355 -0.3205012 0.29768953 0.08884885
0002a0 07 c5 cb bc 58 b2 16 bd b9 f5 11 bf 20 c3 b5 bb
       -0.024874223 -0.036791176 -0.5701557 -0.0055469424
0002b0 e2 e5 4f 3e 18 84 58 3c 04 3f 4b 3e 07 a5 27 be
       0.20302537 0.013215087 0.19848257 -0.16371547
0002c0 fe 53 64 3d 35 eb bb 3e 77 b0 46 3d d5 fd 9c 3e
       0.055744164 0.36702886 0.048508134 0.30662408
0002d0 59 13 ef bd 9a 15 d1 bd d8 81 a5 3e f1 5b cd bd
       -0.11673612 -0.10209198 0.32325625 -0.10027302
0002e0 09 4e 94 be f9 d8 77 be 98 f4 25 3f b4 df 20 3e
       -0.28965786 -0.24203862 0.64826345 0.15710336
0002f0 56 88 ab be 99 59 0c bf 46 96 09 be 62 07 24 be
       -0.33502454 -0.54824215 -0.13436231 -0.16018441
000300 8d 5b 18 bf b9 99 94 3e a0 91 99 be 4a 39 d6 bd
       -0.59514695 0.2902353 -0.29993916 -0.10460146
000310 b2 31 5e be 81 f6 b2 3e 15 1a e5 be c5 1b b4 3d
       -0.21698645 0.34953693 -0.44746462 0.08794359
000320 3e 4a be 3d d9 9d b1 3e 72 bd 42 bf f8 7c 3f be
       0.09291504 0.3469074 -0.7607032 -0.18700016
000330 78 3e 28 3c 89 f3 7d 3d 4e b2 00 3e a6 0a 90 3e
       0.0102688 0.06199983 0.12568018 0.28133124
000340 da a3 ce 3b 84 73 1f bf b9 1f 27 bf 13 77 eb be
       0.0063061537 -0.6228564 -0.6528278 -0.45989284
000350 4d 17 a8 be ff cb b6 be 41 b3 a4 bd a2 20 6b bd
       -0.32830277 -0.35702512 -0.080420025 -0.057404168
000360 eb cb f9 bd f9 d4 80 3e d8 26 a3 be 5d 97 d2 bd
       -0.121970974 0.25162485 -0.31865573 -0.102827765
000370 6e c1 43 3e 78 5a 91 be db f8 19 3e e9 e9 95 bd
       0.19116756 -0.28389335 0.15036337 -0.073200054
000380 ef 02 4c be 9f e1 9d 3e d5 6d 00 bd a5 14 66 3e
       -0.19922994 0.30836198 -0.031354744 0.22468813
000390 31 70 77 3d 63 dd 1d bf 55 0d ae bc 1c c5 e8 3d
       0.06040973 -0.61665934 -0.021246592 0.11365721
0003a0 8c 84 33 bc 4f d8 05 3f fb cf 7a be a9 80 4a 3e
       -0.010956895 0.52283186 -0.24493401 0.19775642
0003b0 1e 3c c0 3d ec 39 b7 3d 3b 03 fc bd 82 db b5 be
       0.093864664 0.089465946 -0.12305304 -0.35519034
0003c0 d7 f9 76 be 65 d2 1b 3e 2f c3 95 be a4 09 73 be
       -0.24118744 0.15216978 -0.29250476 -0.23734146
0003d0 95 12 76 be 79 8f 46 3d 4c 55 cc 3e 70 5b 00 3e
       -0.24030526 0.04847667 0.39908826 0.1253488
0003e0 2d b7 13 be c2 af 33 3e 9a d5 b9 3e 53 44 ff bd
       -0.14425345 0.17547515 0.36295778 -0.12464204
0003f0 8e 9b 30 bf 49 f0 18 3e 0e 8a 91 3e 75 12 d7 3d
       -0.6898736 0.14935412 0.2842564 0.10501567

sequential_2/dense_4/BiasAdd/ReadVariableOp f4 [10]
000000 1a 6f b0 bd cc a4 63 bd e1 c4 52 bb 27 79 be bd
       -0.08614941 -0.055577084 -0.0032160806 -0.09300452
000010 29 a2 1b 3c 0e d7 95 3d f1 02 93 bc 46 11 4f bd
       0.009499111 0.07316409 -0.017945739 -0.050553583
000020 69 fc 34 3e 9c f3 d3 bc
       0.17674412 -0.025872998

sequential_2/dense_3/BiasAdd/ReadVariableOp f4 [100]
000000 ea f8 a2 3d 92 e3 9a bd a7 90 a9 bd e7 af d1 3c
       0.07957633 -0.07562937 -0.08279543 0.025596572
000010 f7 3d c4 3c fb f7 97 3d 2d 34 8e 3e 75 25 d4 bc
       0.023955328 0.074203454 0.27774182 -0.025896767
000020 9a 97 5a bd f7 31 eb 3d 72 97 2a 3d 8a 35 07 3b
       -0.053367235 0.114841394 0.041648336 0.0020631277
000030 58 22 cd bd 1c 7b ed 3d 82 af 8d bc 77 ad 13 3e
       -0.10016316 0.11595747 -0.017295603 0.1442164
000040 83 f3 2c bc a8 f1 32 be 0b 07 2a bd bc 25 73 3d
       -0.010556105 -0.17474997 -0.041510623 0.05936216
000050 be 8e 45 bc ec 7a 17 3d a1 2b 85 bd 56 b0 c2 3d
       -0.012057958 0.03698246 -0.06502462 0.0950629
000060 cc b7 58 3b 7c 1d 11 3d 13 73 ca 3d 02 f0 39 3e
       0.0033068536 0.03542851 0.0988523 0.18157962
000070 2f 18 5b 3d 8d 78 f9 bd 6a c9 d5 3d b3 60 0f 3e
       0.05348986 -0.12181196 0.10438807 0.14001732
000080 6d 5c 63 3d 59 85 80 3b b8 d8 e7 3d 06 62 d1 bb
       0.055508066 0.0039221463 0.11320633 -0.006389859
000090 71 da a1 bd 4d 6c 84 bd 6b db b3 3d 7c 31 d3 3c
       -0.079029925 -0.06465969 0.08782085 0.025780432
0000a0 4b 7e 7d bd 4e d4 6d bd 1d f2 3b bd a1 37 8c 3d
       -0.06188802 -0.058063798 -0.045885194 0.06846548
0000b0 64 2a 09 3c ac 87 b6 3a c5 43 31 bc 58 3d e9 3c
       0.008371923 0.0013925931 -0.01081938 0.028471634
0000c0 7f ef 63 bc 31 b8 ad bc 3f ca 35 3d 10 ff 3c bd
       -0.013912081 -0.021205993 0.04438233 -0.046141684
0000d0 d1 6e 08 3d fc 82 75 3d 7b c2 8c bd 5c 0b 20 3e
       0.033308808 0.05993937 -0.06873032 0.15629333
0000e0 eb 91 45 bd 7f a2 90 3d 29 f1 12 3d df f3 48 bc
       -0.04823486 0.07062244 0.03587452 -0.012265175
0000f0 ea 0b c2 3d b7 14 21 3d 09 0d c1 bd 00 bd e8 bd
       0.09474929 0.039326396 -0.094263144 -0.11364174
000100 20 d1 db 3c 3f d1 57 bd f0 f6 8e bd bc 09 8b 3d
       0.026833117 -0.052689787 -0.06980693 0.06788966
000110 e3 61 ca bd 6d fe 93 3d 12 f2 69 bc 88 5d ad 3d
       -0.09881952 0.07226262 -0.0142789055 0.08465105
000120 0a f0 59 3d 00 0c 2a bd fc a4 58 3e e8 c0 e0 3c
       0.053207435 -0.04151535 0.21156687 0.027435735
000130 eb 4e 95 3d ad d7 57 bd 43 19 4c bc 8f 3a 01 3e
       0.07290443 -0.05269592 -0.012457195 0.12619995
000140 24 9e 8f 3d 7c 57 aa bc 84 20 86 3d 98 a2 61 bc
       0.07012585 -0.020793669 0.065491706 -0.0137716755
000150 86 0a e2 3d 5e 40 d2 3c 95 13 4f 3e 87 9c 0a 3e
       0.110371634 0.025665458 0.20222314 0.13536273
000160 4d 92 d1 3d 19 e4 f3 3b 46 42 13 3d e3 b8 0e bd
       0.10232983 0.007442963 0.035951875 -0.03484429
000170 73 0e 8a 3d 4b 4f c4 3d d8 fe 1d 3d 65 ba 11 3e
       0.06741037 0.095854364 0.038573116 0.1423126
000180 ee 67 0b 3c 02 27 7c 3d 81 bc 2e bd 4a e9 1b 3d
       0.0085086655 0.06156064 -0.04266024 0.03806428

sequential_2/dense_3/MatMul i1 [100, 784] scale=0.006396014 zero_point=0
000000 09 03 02 f6 00 01 f8 04 f7 f6 01 f7 fc 02 fe f7
       0.057564124 0.01918804 0.012792028 -0.063960135 0.0 0.006396014 -0.05116811 0.025584055 -0.057564124 -0.063960135 0.006396014 -0.057564124 -0.025584055 0.012792028 -0.012792028 -0.057564124
000010 05 03 09 f7 f5 ff 03 05 ff f8 fa 0a 09 04 01 0a
       0.031980067 0.01918804 0.057564124 -0.057564124 -0.07035615 -0.006396014 0.01918804 0.031980067 -0.006396014 -0.05116811 -0.03837608 0.063960135 0.057564124 0.025584055 0.006396014 0.063960135
000020 fb 09 06 01 14 0c 11 04 20 0c 21 25 1d 1b 0f 14
       -0.031980067 0.057564124 0.03837608 0.006396014 0.12792027 0.07675216 0.10873223 0.025584055 0.20467244 0.07675216 0.21106845 0.23665251 0.1854844 0.17269237 0.09594021 0.12792027
000030 12 1b 15 1c f7 f5 03 04 fe 05 0d 0b ff 02 0a 15
       0.11512825 0.17269237 0.1343163 0.17908838 -0.057564124 -0.07035615 0.01918804 0.025584055 -0.012792028 0.031980067 0.08314818 0.07035615 -0.006396014 0.012792028 0.063960135 0.1343163
000040 17 08 20 1e 11 21 23 2c 31 10 25 1c 1c 1c 14 20
       0.14710832 0.05116811 0.20467244 0.19188042 0.10873223 0.21106845 0.22386049 0.2814246 0.31340468 0.10233622 0.23665251 0.17908838 0.17908838 0.17908838 0.12792027 0.20467244
000050 04 04 f6 05 fd 0b 12 0f ea 02 0b 07 03 12 09 07
       0.025584055 0.025584055 -0.063960135 0.031980067 -0.01918804 0.07035615 0.11512825 0.09594021 -0.1407123 0.012792028 0.07035615 0.044772096 0.01918804 0.11512825 0.057564124 0.044772096
000060 03 08 f3 01 06 12 11 12 f6 04 08 16 08 e8 f6 0b
       0.01918804 0.05116811 -0.08314818 0.006396014 0.03837608 0.11512825 0.10873223 0.11512825 -0.063960135 0.025584055 0.05116811 0.1407123 0.05116811 -0.15350433 -0.063960135 0.07035615
000070 09 f5 05 f6 fa 01 02 fd 08 08 00 f5 eb f6 f6 f6
       0.057564124 -0.07035615 0.031980067 -0.063960135 -0.03837608 0.006396014 0.012792028 -0.01918804 0.05116811 0.05116811 0.0 -0.07035615 -0.1343163 -0.063960135 -0.063960135 -0.063960135
000080 0a 0a 00 1d 0e 01 f9 0e ec e2 ef 0e f3 f8 1c de
       0.063960135 0.063960135 0.0 0.1854844 0.08954419 0.006396014 -0.044772096 0.08954419 -0.12792027 -0.19188042 -0.10873223 0.08954419 -0.08314818 -0.05116811 0.17908838 -0.21746446
000090 f7 01 fa fb e8 eb f5 ec ed ee 06 03 00 ff 06 0b
       -0.057564124 0.006396014 -0.03837608 -0.031980067 -0.15350433 -0.1343163 -0.07035615 -0.12792027 -0.12152426 -0.11512825 0.03837608 0.01918804 0.0 -0.006396014 0.03837608 0.07035615
0000a0 04 fe ff 16 02 fc 07 06 fe f5 06 d5 e1 e8 e9 ef
       0.025584055 -0.012792028 -0.006396014 0.1407123 0.012792028 -0.025584055 0.044772096 0.03837608 -0.012792028 -0.07035615 0.03837608 -0.2750286 -0.19827643 -0.15350433 -0.14710832 -0.10873223
0000b0 d1 c6 d6 ee f0 f9 fc 1a fd f8 ee fd ff fb 0b 00
       -0.30061266 -0.3709688 -0.2686326 -0.11512825 -0.10233622 -0.044772096 -0.025584055 0.16629636 -0.01918804 -0.05116811 -0.11512825 -0.01918804 -0.006396014 -0.031980067 0.07035615 0.0
0000c0 fa fb e2 17 08 e9 f8 e4 de c4 e4 f0 e0 d1 e2 fa
       -0.03837608 -0.031980067 -0.19188042 0.14710832 0.05116811 -0.14710832 -0.05116811 -0.17908838 -0.21746446 -0.38376084 -0.17908838 -0.10233622 -0.20467244 -0.30061266 -0.19188042 -0.03837608
0000d0 07 0c 1a 17 ff fe fc e9 ea ff fa f1 ea e8 f9 0c
       0.044772096 0.07675216 0.16629636 0.14710832 -0.006396014 -0.012792028 -0.025584055 -0.14710832 -0.1407123 -0.006396014 -0.03837608 -0.09594021 -0.1407123 -0.15350433 -0.044772096 0.07675216
0000e0 19 f8 fb e5 df c8 e1 ea cd d7 e2 04 05 1e 1d 02
       0.15990034 -0.05116811 -0.031980067 -0.17269237 -0.21106845 -0.35817677 -0.19827643 -0.1407123 -0.3261967 -0.26223657 -0.19188042 0.025584055 0.031980067 0.19188042 0.1854844 0.012792028
0000f0 04 04 fa ed e9 f4 f1 f2 c9 e3 fa fb 02 e6 fe 09
       0.025584055 0.025584055 -0.03837608 -0.12152426 -0.14710832 -0.07675216 -0.09594021 -0.08954419 -0.35178077 -0.1854844 -0.03837608 -0.031980067 0.012792028 -0.16629636 -0.012792028 0.057564124
