Deep Learning/Code Basics/tflite_model.tflite (tflite, 320032 bytes, 4 tensors)

sequential_2/dense_4/BiasAdd/ReadVariableOp f4 [10]
0	0xbdb06f1a	-0.08614941
1	0xbd63a4cc	-0.055577084
2	0xbb52c4e1	-0.0032160806
3	0xbdbe7927	-0.09300452
4	0x3c1ba229	0.009499111
5	0x3d95d70e	0.07316409
6	0xbc9302f1	-0.017945739
7	0xbd4f1146	-0.050553583
8	0x3e34fc69	0.17674412
9	0xbcd3f39c	-0.025872998

sequential_2/dense_3/BiasAdd/ReadVariableOp f4 [100]
0	0x3da2f8ea	0.07957633
1	0xbd9ae392	-0.07562937
2	0xbda990a7	-0.08279543
3	0x3cd1afe7	0.025596572
4	0x3cc43df7	0.023955328
5	0x3d97f7fb	0.074203454
6	0x3e8e342d	0.27774182
7	0xbcd42575	-0.025896767
8	0xbd5a979a	-0.053367235
9	0x3deb31f7	0.114841394
10	0x3d2a9772	0.041648336
11	0x3b07358a	0.0020631277
12	0xbdcd2258	-0.10016316
13	0x3ded7b1c	0.11595747
14	0xbc8daf82	-0.017295603
15	0x3e13ad77	0.1442164
16	0xbc2cf383	-0.010556105
17	0xbe32f1a8	-0.17474997
18	0xbd2a070b	-0.041510623
19	0x3d7325bc	0.05936216
20	0xbc458ebe	-0.012057958
21	0x3d177aec	0.03698246
22	0xbd852ba1	-0.06502462
23	0x3dc2b056	0.0950629
24	0x3b58b7cc	0.0033068536
25	0x3d111d7c	0.03542851
26	0x3dca7313	0.0988523
27	0x3e39f002	0.18157962
28	0x3d5b182f	0.05348986
29	0xbdf9788d	-0.12181196
30	0x3dd5c96a	0.10438807
31	0x3e0f60b3	0.14001732
32	0x3d635c6d	0.055508066
33	0x3b808559	0.0039221463
34	0x3de7d8b8	0.11320633
35	0xbbd16206	-0.006389859
36	0xbda1da71	-0.079029925
37	0xbd846c4d	-0.06465969
38	0x3db3db6b	0.08782085
39	0x3cd3317c	0.025780432
40	0xbd7d7e4b	-0.06188802
41	0xbd6dd44e	-0.058063798
42	0xbd3bf21d	-0.045885194
43	0x3d8c37a1	0.06846548
44	0x3c092a64	0.008371923
45	0x3ab687ac	0.0013925931
46	0xbc3143c5	-0.01081938
47	0x3ce93d58	0.028471634
48	0xbc63ef7f	-0.013912081
49	0xbcadb831	-0.021205993
50	0x3d35ca3f	0.04438233
51	0xbd3cff10	-0.046141684
52	0x3d086ed1	0.033308808
53	0x3d7582fc	0.05993937
54	0xbd8cc27b	-0.06873032
55	0x3e200b5c	0.15629333
56	0xbd4591eb	-0.04823486
57	0x3d90a27f	0.07062244
58	0x3d12f129	0.03587452
59	0xbc48f3df	-0.012265175
60	0x3dc20bea	0.09474929
61	0x3d2114b7	0.039326396
62	0xbdc10d09	-0.094263144
63	0xbde8bd00	-0.11364174
64	0x3cdbd120	0.026833117
65	0xbd57d13f	-0.052689787
66	0xbd8ef6f0	-0.06980693
67	0x3d8b09bc	0.06788966
68	0xbdca61e3	-0.09881952
69	0x3d93fe6d	0.07226262
70	0xbc69f212	-0.0142789055
71	0x3dad5d88	0.08465105
72	0x3d59f00a	0.053207435
73	0xbd2a0c00	-0.04151535
74	0x3e58a4fc	0.21156687
75	0x3ce0c0e8	0.027435735
76	0x3d954eeb	0.07290443
77	0xbd57d7ad	-0.05269592
78	0xbc4c1943	-0.012457195
79	0x3e013a8f	0.12619995
80	0x3d8f9e24	0.07012585
81	0xbcaa577c	-0.020793669
82	0x3d862084	0.065491706
83	0xbc61a298	-0.0137716755
84	0x3de20a86	0.110371634
85	0x3cd2405e	0.025665458
86	0x3e4f1395	0.20222314
87	0x3e0a9c87	0.13536273
88	0x3dd1924d	0.10232983
89	0x3bf3e419	0.007442963
90	0x3d134246	0.035951875
91	0xbd0eb8e3	-0.03484429
92	0x3d8a0e73	0.06741037
93	0x3dc44f4b	0.095854364
94	0x3d1dfed8	0.038573116
95	0x3e11ba65	0.1423126
96	0x3c0b67ee	0.0085086655
97	0x3d7c2702	0.06156064
98	0xbd2ebc81	-0.04266024
99	0x3d1be94a	0.03806428

sequential_2/dense_3/MatMul f4 [100, 784]
0	0x3d667884	0.056267276
1	0x3caeafe0	0.021324098
2	0x3c408010	0.0117492825
3	0xbd862ff7	-0.06552117
4	0xbb07d7c0	-0.0020727962
5	0x3b706ac0	0.0036684722
6	0xbd54761c	-0.05187045
7	0x3cbd0094	0.023071565
8	0xbd766398	-0.060153574
9	0xbd814f6a	-0.06313975
10	0x3b6b7900	0.0035930276
11	0xbd7371aa	-0.05943457
12	0xbce3c42d	-0.027803505
13	0x3c50cb85	0.012743835
14	0xbc809f86	-0.015701067
15	0xbd6a83b1	-0.057254497
16	0x3cf21060	0.029548824
17	0x3c8cc35c	0.017182998
18	0x3d5ef578	0.054433316
19	0xbd6ba130	-0.057526767
20	0xbd9696c5	-0.07352976
21	0xbba428e0	-0.0050097555
22	0x3c8bb7d8	0.017055437
23	0x3d088f9c	0.03334008
24	0xbb6edca0	-0.003644742
25	0xbd4e0468	-0.05029717
26	0xbd27d725	-0.040976662
27	0x3d883cbc	0.06652209
28	0x3d6b60a0	0.057465196
29	0x3ccb9134	0.024849512
30	0x3b7973c0	0.0038063377
31	0x3d812d44	0.06307462
32	0xbd04c5b9	-0.032415126
33	0x3d739a97	0.0594736
34	0x3d1d53e7	0.038410094
35	0x3bbc2a5b	0.005742354
36	0x3e044192	0.12915638
37	0x3d9e51a4	0.077304155
38	0x3ddd1978	0.107958734
39	0x3cc8bdf8	0.024504647
40	0x3e516120	0.20447206
41	0x3d9ec3bb	0.077521764
42	0x3e5ad147	0.21368895
43	0x3e6ff4f3	0.23433284
44	0x3e3b8922	0.18314031
45	0x3e3031d6	0.17206511
46	0x3dc0700e	0.09396373
47	0x3dff8f37	0.12478488
48	0x3deea175	0.11651889
49	0x3e30f566	0.17281112
50	0x3e0b5205	0.13605507
51	0x3e392554	0.18080646
52	0xbd78b3ad	-0.060718227
53	0xbd8e09f3	-0.069354914
54	0x3c8adb64	0.016950317
55	0x3ce3cc90	0.027807504
56	0xbc7a7088	-0.015285619
57	0x3d05e424	0.032688275
58	0x3da60a7f	0.08107471
59	0x3d8a33d8	0.0674817
60	0xbbeb85d8	-0.0071875863
61	0x3c362e63	0.011119458
62	0x3d8593ba	0.06522317
63	0x3e0a2a65	0.13492735
64	0x3e13d846	0.1443797
65	0x3d5b9d2f	0.0536167
66	0x3e50d0a1	0.20392086
67	0x3e41439a	0.18873444
68	0x3de2b99d	0.11070559
69	0x3e594f3a	0.21221629
70	0x3e6473d0	0.22309804
71	0x3e9050e1	0.28186706
72	0x3e9f7b33	0.3114868
73	0x3dcd7ce4	0.100335866
74	0x3e714db6	0.235648
75	0x3e38eda0	0.18059397
76	0x3e35b183	0.17743497
77	0x3e39b41f	0.18135117
78	0x3e03a894	0.12857276
79	0x3e4fea20	0.20304155
80	0x3cc9b5ad	0.024622763
81	0x3cd0335c	0.025415115
82	0xbd86dd65	-0.065851964
83	0x3cee0f0c	0.02905991
84	0xbca9a4b0	-0.020708412
85	0x3d8e94c0	0.069619656
86	0x3df1912e	0.11795269
87	0x3dc1a8a1	0.094559915
88	0xbe0d94ac	-0.13826245
89	0x3c361010	0.011112228
90	0x3d8af86e	0.067856655
91	0x3d332f0f	0.04374605
92	0x3cb35cc1	0.021894814
93	0x3df13d76	0.11779301
94	0x3d694ddc	0.056959018
95	0x3d355397	0.04426917
96	0x3ca52e99	0.020163821
97	0x3d4ddb5f	0.050258037
98	0xbda3e45f	-0.08002543
99	0x3bafa3ea	0.0053601163
100	0x3d2850e4	0.04109277
101	0x3deeee06	0.11666493
102	0x3dda5e4f	0.10662519
103	0x3de8e5fa	0.113719895
104	0xbd78ff2d	-0.06079023
105	0x3ce6afff	0.028160093
106	0x3d51dd00	0.051236153
107	0x3e0d9ddb	0.13829748
108	0x3d5143a1	0.051089887
109	0xbe205eb6	-0.1566113
110	0xbd802ea9	-0.062589
111	0x3d8992ec	0.06717476
112	0x3d651c70	0.055935323
113	0xbd905a1a	-0.070484355
114	0x3cf45ede	0.029830392
115	0xbd8781ab	-0.06616529
116	0xbd1eeaf5	-0.03879829
117	0x3bf497e0	0.007464394
118	0x3c77a957	0.015116057
119	0xbc855353	-0.016275084
120	0x3d52a223	0.051424157
121	0x3d53c01d	0.051696885
122	0x3a353172	0.000691197
123	0xbd94c653	-0.0726439
124	0xbe0ad492	-0.13557652
125	0xbd82dc55	-0.06389681
126	0xbd8358d0	-0.06413424
127	0xbd85261b	-0.06501409
128	0x3d819aa9	0.06328327
129	0x3d8070e8	0.06271535
130	0xba04abc5	-0.0005060996
131	0x3e406b34	0.18790895
132	0x3dbbfe91	0.09179414
133	0x3bfb7256	0.007673542
134	0xbd35e80a	-0.044410743
135	0x3db9c804	0.09071353
136	0xbe04a148	-0.12952149
137	0xbe476159	-0.19470729
138	0xbddf1e0a	-0.10894401
139	0x3dba4ef7	0.090970926
140	0xbda7fbe1	-0.08202339
141	0xbd4d38c0	-0.05010295
142	0x3e369844	0.17831522
143	0xbe6173ad	-0.22016783
144	0xbd74f603	-0.059804928
145	0x3b8728ed	0.004124752
146	0xbd19f2a9	-0.037584934
147	0xbcebe1bc	-0.028794162
148	0xbe1fa9bd	-0.15592094
149	0xbe0853b4	-0.1331318
150	0xbd92c3e2	-0.07166268
151	0xbe05137b	-0.12995712
152	0xbdf9b07b	-0.12191864
153	0xbdea9239	-0.11453671
154	0x3d1aa58f	0.037755545
155	0x3c9ff8d1	0.019527825
156	0x3adf6df7	0.0017046322
157	0xbbe72abd	-0.0070546553
158	0x3d15745e	0.03648793
159	0x3d8b1f8b	0.06793126
160	0x3cc23234	0.02370558
161	0xbc442d4e	-0.011973692
162	0xbba56fb8	-0.0050487183
163	0x3e0e9006	0.13922128
164	0x3c401ba8	0.011725344
165	0xbcc657c1	-0.024211766
166	0x3d3923c3	0.04520012
167	0x3d1c56b8	0.03816864
168	0xbc1e1900	-0.009649515
169	0xbd90a988	-0.070635855
170	0x3d1f6e2b	0.038923424
171	0xbe8b4152	-0.27198273
172	0xbe4b0e88	-0.19829762
173	0xbe1ece4d	-0.15508385
174	0xbe176aba	-0.14786807
175	0xbde1e95f	-0.1103084
176	0xbe9b69eb	-0.30354246
177	0xbebcf0b5	-0.36902395
178	0xbe89dc8a	-0.2692607
179	0xbde765ef	-0.11298739
180	0xbdd6fcf2	-0.10497464
181	0xbd34cbd3	-0.044139694
182	0xbce01fc2	-0.027358893
183	0x3e2d02fd	0.16895671
184	0xbca78ddd	-0.020453388
185	0xbd48b1f6	-0.04899784
186	0xbdeb6e53	-0.11495652
187	0xbc8c5090	-0.017128259
188	0xbbe4a2f7	-0.0069774347
189	0xbd027295	-0.031847555
190	0x3d8dd5ea	0.069255665
191	0x3b1e0a96	0.0024115196
192	0xbd2502de	-0.040285937
193	0xbd099663	-0.033590686
194	0xbe41471d	-0.18874784
195	0x3e1450fd	0.1448402
196	0x3d569434	0.05238743
197	0xbe147b31	-0.14500119
198	0xbd4ada6e	-0.049524717
199	0xbe391866	-0.18075714
200	0xbe5c8d0d	-0.21538182
201	0xbec575c4	-0.3856641
202	0xbe381e3f	-0.17980288
203	0xbdce2ce6	-0.100671574
204	0xbe51cbb8	-0.20487869
205	0xbe98f83c	-0.29876888
206	0xbe46cfed	-0.19415255
207	0xbd138850	-0.03601867
208	0x3d2f8aa0	0.042856812
209	0x3d992d74	0.074793726
210	0x3e29c547	0.16579162
211	0x3e16b379	0.14716901
212	0xbbbf6d0e	-0.0058418578
213	0xbc3a9d3a	-0.011390025
214	0xbcd2e24b	-0.02574267
215	0xbe17ec72	-0.1483629
216	0xbe124c49	-0.14286913
217	0xbb9e339f	-0.004827931
218	0xbd208834	-0.039192393
219	0xbdc6fc36	-0.09716074
220	0xbe10d805	-0.14144905
221	0xbe1be754	-0.15224963
222	0xbd3f335b	-0.046679836
223	0x3d9a52f2	0.07535352
224	0x3e226da1	0.15862133
225	0xbd5d6f2d	-0.054061104
226	0xbcf9e353	-0.030503904
227	0xbe2e8219	-0.17041816
228	0xbe56d315	-0.20978959
229	0xbeb64e33	-0.35606536
230	0xbe4e0514	-0.20119125
231	0xbe0fabd3	-0.1403039
232	0xbea67c1f	-0.32516572
233	0xbe84ddba	-0.25950414
234	0xbe475381	-0.19465448
235	0x3cea2df7	0.02858637
236	0x3d0119d1	0.03151876
237	0x3e43bcea	0.19115034
238	0x3e3d55ae	0.18489715
239	0x3c405b51	0.0117405215
240	0x3ce0f3c1	0.02745998
241	0x3cb8275a	0.022479702
242	0xbd1cd85c	-0.038292274
243	0xbdf704c5	-0.120614566
244	0xbe149c7d	-0.1451282
245	0xbd982658	-0.074291885
246	0xbdc4069d	-0.09571574
247	0xbdb527f1	-0.08845509
248	0xbeb35a25	-0.35029712
249	0xbe3fb495	-0.1872123
250	0xbd14072f	-0.036139663
251	0xbcf4cbea	-0.02988239
252	0x3c2ccee3	0.0105473725
253	0xbe28a96b	-0.16470878
254	0xbc27d626	-0.010243928
255	0x3d6e8d45	0.058240194

sequential_2/dense_4/MatMul f4 [10, 100]
0	0x3c880388	0.016603246
1	0xbe082766	-0.1329628
2	0x3eea8e82	0.4581185
3	0x3e700f60	0.23443365
4	0x3de773ed	0.11301408
5	0xbee563ae	-0.44802612
6	0xbdba65e9	-0.09101469
7	0xbe1c93b6	-0.15290722
8	0x3dd7bf3c	0.10534522
9	0xbe192f0d	-0.14959355
10	0xbeef2433	-0.46707305
11	0x3e08f346	0.13374051
12	0x3e0f7e09	0.14012922
13	0xbec256bf	-0.37956807
14	0xbd027ae1	-0.031855468
15	0x3cf10353	0.02942053
16	0xbc3c8d15	-0.011508246
17	0x3dfc722f	0.12326466
18	0xbea51381	-0.32241443
19	0xbe3035d7	-0.17208038
20	0x3ca7501c	0.020423941
21	0x3e2f2c68	0.17106783
22	0xbec1070c	-0.3770069
23	0x3e6b3345	0.22968777
24	0x3e76f33e	0.24116227
25	0xbe0c8beb	-0.1372525
26	0xbf1e3ad3	-0.6180851
27	0xbe61ede0	-0.22063398
28	0x3ea756ab	0.3268331
29	0x3e07b482	0.13252452
30	0xbda6a0ee	-0.08136164
31	0x3e77b084	0.24188429
32	0xbd772672	-0.0603394
33	0xbe84a5fc	-0.25907886
34	0xbe272da8	-0.1632601
35	0xbeadd734	-0.3395325
36	0xbe489661	-0.19588615
37	0x3e1c754a	0.15279117
38	0x3e965196	0.2935912
39	0xbe68e051	-0.2274182
40	0x3e085d61	0.13316871
41	0x3e538977	0.20657907
42	0x3ea893b0	0.32925177
43	0x3e0f3908	0.139866
44	0xbd24cc47	-0.040233877
45	0x3ddacabb	0.10683199
46	0xbef7159c	-0.48258674
47	0x3dd1920b	0.102329336
48	0xbf1775f7	-0.59164375
49	0xbd879ac5	-0.06621317
50	0xbf013832	-0.5047637
51	0xbee88cc3	-0.45419893
52	0xbea6fd76	-0.3261525
53	0xbf3262cf	-0.6968202
54	0x3d483f27	0.04888835
55	0xbe3b2414	-0.18275481
56	0xbe620dd7	-0.22075592
57	0xbea2ee5e	-0.31822485
58	0xbf508077	-0.8144602
59	0xbd1ec4a5	-0.038761754
60	0xbe47134e	-0.19440958
61	0x3e1b5919	0.15170707
62	0x3ea43a3e	0.32075685
63	0x3e15af72	0.14617708
64	0xbeb01122	-0.3438807
65	0xbebdaf8f	-0.37048003
66	0x3e9eacb0	0.30991125
67	0xbe53d6a2	-0.20687345
68	0x3e0286b7	0.12746702
69	0xbc98e956	-0.01866595
70	0x3e6ef39e	0.2333512
71	0x3e6415b8	0.2227391
72	0xbf28e3ea	-0.6597277
73	0xbebb2bb1	-0.3655677
74	0xbe5cca87	-0.21561633
75	0xbd26eda6	-0.040753983
76	0xbcb367d9	-0.021900104
77	0x3e3e14b0	0.18562579
78	0xbd51dc8f	-0.05123573
79	0xbe00b03c	-0.12567228
80	0xbd93d02c	-0.0721744
81	0xbddb01d5	-0.10693709
82	0x3e9ec3b5	0.31008688
83	0x3d654584	0.0559745
84	0xbf365d9f	-0.71236604
85	0x3e2f1d05	0.17100914
86	0xbe4aef1c	-0.19817775
87	0xbe8f74c2	-0.28018767
88	0x3e7332e1	0.23749878
89	0xbea2f110	-0.3182454
90	0x3e4f8653	0.20266084
91	0x3d43f389	0.047839675
92	0xbf631f2e	-0.8871945
93	0x3cdbfae2	0.026853029
94	0x3e71ae39	0.23601617
95	0xbe34a1d4	-0.17639858
96	0xbdb2a8ad	-0.087235786
97	0xbf6680f3	-0.9004051
98	0x3c87c0cc	0.016571425
99	0x3dfaeadd	0.12251828
100	0x3ea91be5	0.33029094
101	0x3e70e92c	0.23526448
102	0xbf6b922c	-0.92019916
103	0xbe9f4e45	-0.31114402
104	0x3eb138aa	0.34613544
105	0x3dfb137f	0.12259578
106	0x3e1b6899	0.1517662
107	0x3e95ba6b	0.29243788
108	0x3e955a85	0.29170623
109	0x3da0b86d	0.078476764
110	0x3f328fb4	0.69750524
111	0x3f03a5e0	0.5142498
112	0x3d89b642	0.06724216
113	0xbe2d2bfc	-0.1691131
114	0xbea9bbbd	-0.33151045
115	0xbe92dd0f	-0.2868428
116	0xbed6fe50	-0.419909
117	0xbdec378f	-0.115340345
118	0x3e4bb62a	0.19893709
119	0x3dc792f8	0.09744829
120	0x3cc911b6	0.024544578
121	0x3e6747f6	0.22586045
122	0x3e83eca5	0.25766483
123	0xbed52953	-0.4163309
124	0xbd4f7371	-0.050647203
125	0xbccbc658	-0.024874851
126	0xbe15ea1a	-0.14640084
127	0x3e7293d2	0.23689201
128	0xbe48b16e	-0.19598934
129	0x3e839f60	0.2570753
130	0xbeafb2d1	-0.34316114
131	0xbe9e9a01	-0.3097687
132	0xbcbfa136	-0.023392301
133	0x3e7b4c3f	0.24540804
134	0xbda28017	-0.079345874
135	0xbe88c6cf	-0.2671418
136	0xbd21a39a	-0.039462663
137	0x3e9e0ed8	0.308707
138	0xbed8bba1	-0.4233065
139	0xbb61ccf2	-0.0034454432
140	0xbdf74a7d	-0.120747544
141	0xbe52974c	-0.20565528
142	0x3e50aa57	0.2037748
143	0xbee63b38	-0.44967055
144	0xbee4c72d	-0.4468321
145	0xbebe13f1	-0.3712459
146	0x3e3a863a	0.18215266
147	0xbe61d3cf	-0.22053455
148	0x3eb38a3d	0.35066405
149	0xbe1cfb6c	-0.15330285
150	0x3ecfa2d9	0.4055393
151	0x3e6c6271	0.23084427
152	0xbe14808f	-0.14502166
153	0x3e4e9623	0.2017446
154	0x3de69457	0.11258762
155	0xbecb19c7	-0.39668104
156	0x3e8222bb	0.25417122
157	0x3d3b22a4	0.045687333
158	0xbdaf7a83	-0.08568289
159	0x3dade2c3	0.08490517
160	0xbeb53d20	-0.35398197
161	0x3e61956e	0.22029659
162	0x3eae53ab	0.3404821
163	0x3decd232	0.11563529
164	0x3e66f2c7	0.2255355
165	0xbea418bc	-0.3205012
166	0x3e986ac3	0.29768953
167	0x3db5f663	0.08884885
168	0xbccbc507	-0.024874223
169	0xbd16b258	-0.036791176
170	0xbf11f5b9	-0.5701557
171	0xbbb5c320	-0.0055469424
172	0x3e4fe5e2	0.20302537
173	0x3c588418	0.013215087
174	0x3e4b3f04	0.19848257
175	0xbe27a507	-0.16371547
176	0x3d6453fe	0.055744164
177	0x3ebbeb35	0.36702886
178	0x3d46b077	0.048508134
179	0x3e9cfdd5	0.30662408
180	0xbdef1359	-0.11673612
181	0xbdd1159a	-0.10209198
182	0x3ea581d8	0.32325625
183	0xbdcd5bf1	-0.10027302
184	0xbe944e09	-0.28965786
185	0xbe77d8f9	-0.24203862
186	0x3f25f498	0.64826345
187	0x3e20dfb4	0.15710336
188	0xbeab8856	-0.33502454
189	0xbf0c5999	-0.54824215
190	0xbe099646	-0.13436231
191	0xbe240762	-0.16018441
192	0xbf185b8d	-0.59514695
193	0x3e9499b9	0.2902353
194	0xbe9991a0	-0.29993916
195	0xbdd6394a	-0.10460146
196	0xbe5e31b2	-0.21698645
197	0x3eb2f681	0.34953693
198	0xbee51a15	-0.44746462
199	0x3db41bc5	0.08794359
200	0x3dbe4a3e	0.09291504
201	0x3eb19dd9	0.3469074
202	0xbf42bd72	-0.7607032
203	0xbe3f7cf8	-0.18700016
204	0x3c283e78	0.0102688
205	0x3d7df389	0.06199983
206	0x3e00b24e	0.12568018
207	0x3e900aa6	0.28133124
208	0x3bcea3da	0.0063061537
209	0xbf1f7384	-0.6228564
210	0xbf271fb9	-0.6528278
211	0xbeeb7713	-0.45989284
212	0xbea8174d	-0.32830277
213	0xbeb6cbff	-0.35702512
214	0xbda4b341	-0.080420025
215	0xbd6b20a2	-0.057404168
216	0xbdf9cbeb	-0.121970974
217	0x3e80d4f9	0.25162485
218	0xbea326d8	-0.31865573
219	0xbdd2975d	-0.102827765
220	0x3e43c16e	0.19116756
221	0xbe915a78	-0.28389335
222	0x3e19f8db	0.15036337
223	0xbd95e9e9	-0.073200054
224	0xbe4c02ef	-0.19922994
225	0x3e9de19f	0.30836198
226	0xbd006dd5	-0.031354744
227	0x3e6614a5	0.22468813
228	0x3d777031	0.06040973
229	0xbf1ddd63	-0.61665934
230	0xbcae0d55	-0.021246592
231	0x3de8c51c	0.11365721
232	0xbc33848c	-0.010956895
233	0x3f05d84f	0.52283186
234	0xbe7acffb	-0.24493401
235	0x3e4a80a9	0.19775642
236	0x3dc03c1e	0.093864664
237	0x3db739ec	0.089465946
238	0xbdfc033b	-0.12305304
239	0xbeb5db82	-0.35519034
240	0xbe76f9d7	-0.24118744
241	0x3e1bd265	0.15216978
242	0xbe95c32f	-0.29250476
243	0xbe7309a4	-0.23734146
244	0xbe761295	-0.24030526
245	0x3d468f79	0.04847667
246	0x3ecc554c	0.39908826
247	0x3e005b70	0.1253488
248	0xbe13b72d	-0.14425345
249	0x3e33afc2	0.17547515
250	0x3eb9d59a	0.36295778
251	0xbdff4453	-0.12464204
252	0xbf309b8e	-0.6898736
253	0x3e18f049	0.14935412
254	0x3e918a0e	0.2842564
255	0x3dd71275	0.10501567
